{
    "format": "layers-model",
    "generatedBy": "keras v2.13.1",
    "convertedBy": "TensorFlow.js Converter v4.11.0",
    "modelTopology": {
        "keras_version": "2.13.1",
        "backend": "tensorflow",
        "model_config": {
            "class_name": "Functional",
            "config": {
                "name": "model",
                "trainable": true,
                "layers": [
                    {
                        "class_name": "InputLayer",
                        "config": {
                            "batch_input_shape": [
                                null,
                                32,
                                32,
                                32,
                                1
                            ],
                            "dtype": "float32",
                            "sparse": false,
                            "ragged": false,
                            "name": "input_1"
                        },
                        "name": "input_1",
                        "inbound_nodes": []
                    },
                    {
                        "class_name": "Conv3D",
                        "config": {
                            "name": "conv3d",
                            "trainable": true,
                            "dtype": "float32",
                            "filters": 16,
                            "kernel_size": [
                                3,
                                3,
                                3
                            ],
                            "strides": [
                                1,
                                1,
                                1
                            ],
                            "padding": "same",
                            "data_format": "channels_last",
                            "dilation_rate": [
                                1,
                                1,
                                1
                            ],
                            "groups": 1,
                            "activation": "linear",
                            "use_bias": false,
                            "kernel_initializer": {
                                "module": "keras.initializers",
                                "class_name": "GlorotUniform",
                                "config": {
                                    "seed": null
                                },
                                "registered_name": null
                            },
                            "bias_initializer": {
                                "module": "keras.initializers",
                                "class_name": "Zeros",
                                "config": {},
                                "registered_name": null
                            },
                            "kernel_regularizer": null,
                            "bias_regularizer": null,
                            "activity_regularizer": null,
                            "kernel_constraint": null,
                            "bias_constraint": null
                        },
                        "name": "conv3d",
                        "inbound_nodes": [
                            [
                                [
                                    "input_1",
                                    0,
                                    0,
                                    {}
                                ]
                            ]
                        ]
                    },
                    {
                        "class_name": "BatchNormalization",
                        "config": {
                            "name": "batch_normalization",
                            "trainable": true,
                            "dtype": "float32",
                            "axis": [
                                4
                            ],
                            "momentum": 0.99,
                            "epsilon": 0.001,
                            "center": true,
                            "scale": true,
                            "beta_initializer": {
                                "module": "keras.initializers",
                                "class_name": "Zeros",
                                "config": {},
                                "registered_name": null
                            },
                            "gamma_initializer": {
                                "module": "keras.initializers",
                                "class_name": "Ones",
                                "config": {},
                                "registered_name": null
                            },
                            "moving_mean_initializer": {
                                "module": "keras.initializers",
                                "class_name": "Zeros",
                                "config": {},
                                "registered_name": null
                            },
                            "moving_variance_initializer": {
                                "module": "keras.initializers",
                                "class_name": "Ones",
                                "config": {},
                                "registered_name": null
                            },
                            "beta_regularizer": null,
                            "gamma_regularizer": null,
                            "beta_constraint": null,
                            "gamma_constraint": null
                        },
                        "name": "batch_normalization",
                        "inbound_nodes": [
                            [
                                [
                                    "conv3d",
                                    0,
                                    0,
                                    {}
                                ]
                            ]
                        ]
                    },
                    {
                        "class_name": "ReLU",
                        "config": {
                            "name": "re_lu",
                            "trainable": true,
                            "dtype": "float32",
                            "max_value": null,
                            "negative_slope": 0.0,
                            "threshold": 0.0
                        },
                        "name": "re_lu",
                        "inbound_nodes": [
                            [
                                [
                                    "batch_normalization",
                                    0,
                                    0,
                                    {}
                                ]
                            ]
                        ]
                    },
                    {
                        "class_name": "Conv3D",
                        "config": {
                            "name": "conv3d_1",
                            "trainable": true,
                            "dtype": "float32",
                            "filters": 16,
                            "kernel_size": [
                                3,
                                3,
                                3
                            ],
                            "strides": [
                                1,
                                1,
                                1
                            ],
                            "padding": "same",
                            "data_format": "channels_last",
                            "dilation_rate": [
                                1,
                                1,
                                1
                            ],
                            "groups": 1,
                            "activation": "linear",
                            "use_bias": false,
                            "kernel_initializer": {
                                "module": "keras.initializers",
                                "class_name": "GlorotUniform",
                                "config": {
                                    "seed": null
                                },
                                "registered_name": null
                            },
                            "bias_initializer": {
                                "module": "keras.initializers",
                                "class_name": "Zeros",
                                "config": {},
                                "registered_name": null
                            },
                            "kernel_regularizer": null,
                            "bias_regularizer": null,
                            "activity_regularizer": null,
                            "kernel_constraint": null,
                            "bias_constraint": null
                        },
                        "name": "conv3d_1",
                        "inbound_nodes": [
                            [
                                [
                                    "re_lu",
                                    0,
                                    0,
                                    {}
                                ]
                            ]
                        ]
                    },
                    {
                        "class_name": "BatchNormalization",
                        "config": {
                            "name": "batch_normalization_1",
                            "trainable": true,
                            "dtype": "float32",
                            "axis": [
                                4
                            ],
                            "momentum": 0.99,
                            "epsilon": 0.001,
                            "center": true,
                            "scale": true,
                            "beta_initializer": {
                                "module": "keras.initializers",
                                "class_name": "Zeros",
                                "config": {},
                                "registered_name": null
                            },
                            "gamma_initializer": {
                                "module": "keras.initializers",
                                "class_name": "Ones",
                                "config": {},
                                "registered_name": null
                            },
                            "moving_mean_initializer": {
                                "module": "keras.initializers",
                                "class_name": "Zeros",
                                "config": {},
                                "registered_name": null
                            },
                            "moving_variance_initializer": {
                                "module": "keras.initializers",
                                "class_name": "Ones",
                                "config": {},
                                "registered_name": null
                            },
                            "beta_regularizer": null,
                            "gamma_regularizer": null,
                            "beta_constraint": null,
                            "gamma_constraint": null
                        },
                        "name": "batch_normalization_1",
                        "inbound_nodes": [
                            [
                                [
                                    "conv3d_1",
                                    0,
                                    0,
                                    {}
                                ]
                            ]
                        ]
                    },
                    {
                        "class_name": "ReLU",
                        "config": {
                            "name": "re_lu_1",
                            "trainable": true,
                            "dtype": "float32",
                            "max_value": null,
                            "negative_slope": 0.0,
                            "threshold": 0.0
                        },
                        "name": "re_lu_1",
                        "inbound_nodes": [
                            [
                                [
                                    "batch_normalization_1",
                                    0,
                                    0,
                                    {}
                                ]
                            ]
                        ]
                    },
                    {
                        "class_name": "MaxPooling3D",
                        "config": {
                            "name": "max_pooling3d",
                            "trainable": true,
                            "dtype": "float32",
                            "pool_size": [
                                2,
                                2,
                                2
                            ],
                            "padding": "valid",
                            "strides": [
                                2,
                                2,
                                2
                            ],
                            "data_format": "channels_last"
                        },
                        "name": "max_pooling3d",
                        "inbound_nodes": [
                            [
                                [
                                    "re_lu_1",
                                    0,
                                    0,
                                    {}
                                ]
                            ]
                        ]
                    },
                    {
                        "class_name": "Conv3D",
                        "config": {
                            "name": "conv3d_2",
                            "trainable": true,
                            "dtype": "float32",
                            "filters": 32,
                            "kernel_size": [
                                3,
                                3,
                                3
                            ],
                            "strides": [
                                1,
                                1,
                                1
                            ],
                            "padding": "same",
                            "data_format": "channels_last",
                            "dilation_rate": [
                                1,
                                1,
                                1
                            ],
                            "groups": 1,
                            "activation": "linear",
                            "use_bias": false,
                            "kernel_initializer": {
                                "module": "keras.initializers",
                                "class_name": "GlorotUniform",
                                "config": {
                                    "seed": null
                                },
                                "registered_name": null
                            },
                            "bias_initializer": {
                                "module": "keras.initializers",
                                "class_name": "Zeros",
                                "config": {},
                                "registered_name": null
                            },
                            "kernel_regularizer": null,
                            "bias_regularizer": null,
                            "activity_regularizer": null,
                            "kernel_constraint": null,
                            "bias_constraint": null
                        },
                        "name": "conv3d_2",
                        "inbound_nodes": [
                            [
                                [
                                    "max_pooling3d",
                                    0,
                                    0,
                                    {}
                                ]
                            ]
                        ]
                    },
                    {
                        "class_name": "BatchNormalization",
                        "config": {
                            "name": "batch_normalization_2",
                            "trainable": true,
                            "dtype": "float32",
                            "axis": [
                                4
                            ],
                            "momentum": 0.99,
                            "epsilon": 0.001,
                            "center": true,
                            "scale": true,
                            "beta_initializer": {
                                "module": "keras.initializers",
                                "class_name": "Zeros",
                                "config": {},
                                "registered_name": null
                            },
                            "gamma_initializer": {
                                "module": "keras.initializers",
                                "class_name": "Ones",
                                "config": {},
                                "registered_name": null
                            },
                            "moving_mean_initializer": {
                                "module": "keras.initializers",
                                "class_name": "Zeros",
                                "config": {},
                                "registered_name": null
                            },
                            "moving_variance_initializer": {
                                "module": "keras.initializers",
                                "class_name": "Ones",
                                "config": {},
                                "registered_name": null
                            },
                            "beta_regularizer": null,
                            "gamma_regularizer": null,
                            "beta_constraint": null,
                            "gamma_constraint": null
                        },
                        "name": "batch_normalization_2",
                        "inbound_nodes": [
                            [
                                [
                                    "conv3d_2",
                                    0,
                                    0,
                                    {}
                                ]
                            ]
                        ]
                    },
                    {
                        "class_name": "ReLU",
                        "config": {
                            "name": "re_lu_2",
                            "trainable": true,
                            "dtype": "float32",
                            "max_value": null,
                            "negative_slope": 0.0,
                            "threshold": 0.0
                        },
                        "name": "re_lu_2",
                        "inbound_nodes": [
                            [
                                [
                                    "batch_normalization_2",
                                    0,
                                    0,
                                    {}
                                ]
                            ]
                        ]
                    },
                    {
                        "class_name": "Conv3D",
                        "config": {
                            "name": "conv3d_3",
                            "trainable": true,
                            "dtype": "float32",
                            "filters": 32,
                            "kernel_size": [
                                3,
                                3,
                                3
                            ],
                            "strides": [
                                1,
                                1,
                                1
                            ],
                            "padding": "same",
                            "data_format": "channels_last",
                            "dilation_rate": [
                                1,
                                1,
                                1
                            ],
                            "groups": 1,
                            "activation": "linear",
                            "use_bias": false,
                            "kernel_initializer": {
                                "module": "keras.initializers",
                                "class_name": "GlorotUniform",
                                "config": {
                                    "seed": null
                                },
                                "registered_name": null
                            },
                            "bias_initializer": {
                                "module": "keras.initializers",
                                "class_name": "Zeros",
                                "config": {},
                                "registered_name": null
                            },
                            "kernel_regularizer": null,
                            "bias_regularizer": null,
                            "activity_regularizer": null,
                            "kernel_constraint": null,
                            "bias_constraint": null
                        },
                        "name": "conv3d_3",
                        "inbound_nodes": [
                            [
                                [
                                    "re_lu_2",
                                    0,
                                    0,
                                    {}
                                ]
                            ]
                        ]
                    },
                    {
                        "class_name": "BatchNormalization",
                        "config": {
                            "name": "batch_normalization_3",
                            "trainable": true,
                            "dtype": "float32",
                            "axis": [
                                4
                            ],
                            "momentum": 0.99,
                            "epsilon": 0.001,
                            "center": true,
                            "scale": true,
                            "beta_initializer": {
                                "module": "keras.initializers",
                                "class_name": "Zeros",
                                "config": {},
                                "registered_name": null
                            },
                            "gamma_initializer": {
                                "module": "keras.initializers",
                                "class_name": "Ones",
                                "config": {},
                                "registered_name": null
                            },
                            "moving_mean_initializer": {
                                "module": "keras.initializers",
                                "class_name": "Zeros",
                                "config": {},
                                "registered_name": null
                            },
                            "moving_variance_initializer": {
                                "module": "keras.initializers",
                                "class_name": "Ones",
                                "config": {},
                                "registered_name": null
                            },
                            "beta_regularizer": null,
                            "gamma_regularizer": null,
                            "beta_constraint": null,
                            "gamma_constraint": null
                        },
                        "name": "batch_normalization_3",
                        "inbound_nodes": [
                            [
                                [
                                    "conv3d_3",
                                    0,
                                    0,
                                    {}
                                ]
                            ]
                        ]
                    },
                    {
                        "class_name": "ReLU",
                        "config": {
                            "name": "re_lu_3",
                            "trainable": true,
                            "dtype": "float32",
                            "max_value": null,
                            "negative_slope": 0.0,
                            "threshold": 0.0
                        },
                        "name": "re_lu_3",
                        "inbound_nodes": [
                            [
                                [
                                    "batch_normalization_3",
                                    0,
                                    0,
                                    {}
                                ]
                            ]
                        ]
                    },
                    {
                        "class_name": "MaxPooling3D",
                        "config": {
                            "name": "max_pooling3d_1",
                            "trainable": true,
                            "dtype": "float32",
                            "pool_size": [
                                2,
                                2,
                                2
                            ],
                            "padding": "valid",
                            "strides": [
                                2,
                                2,
                                2
                            ],
                            "data_format": "channels_last"
                        },
                        "name": "max_pooling3d_1",
                        "inbound_nodes": [
                            [
                                [
                                    "re_lu_3",
                                    0,
                                    0,
                                    {}
                                ]
                            ]
                        ]
                    },
                    {
                        "class_name": "Conv3D",
                        "config": {
                            "name": "conv3d_4",
                            "trainable": true,
                            "dtype": "float32",
                            "filters": 64,
                            "kernel_size": [
                                3,
                                3,
                                3
                            ],
                            "strides": [
                                1,
                                1,
                                1
                            ],
                            "padding": "same",
                            "data_format": "channels_last",
                            "dilation_rate": [
                                1,
                                1,
                                1
                            ],
                            "groups": 1,
                            "activation": "linear",
                            "use_bias": false,
                            "kernel_initializer": {
                                "module": "keras.initializers",
                                "class_name": "GlorotUniform",
                                "config": {
                                    "seed": null
                                },
                                "registered_name": null
                            },
                            "bias_initializer": {
                                "module": "keras.initializers",
                                "class_name": "Zeros",
                                "config": {},
                                "registered_name": null
                            },
                            "kernel_regularizer": null,
                            "bias_regularizer": null,
                            "activity_regularizer": null,
                            "kernel_constraint": null,
                            "bias_constraint": null
                        },
                        "name": "conv3d_4",
                        "inbound_nodes": [
                            [
                                [
                                    "max_pooling3d_1",
                                    0,
                                    0,
                                    {}
                                ]
                            ]
                        ]
                    },
                    {
                        "class_name": "BatchNormalization",
                        "config": {
                            "name": "batch_normalization_4",
                            "trainable": true,
                            "dtype": "float32",
                            "axis": [
                                4
                            ],
                            "momentum": 0.99,
                            "epsilon": 0.001,
                            "center": true,
                            "scale": true,
                            "beta_initializer": {
                                "module": "keras.initializers",
                                "class_name": "Zeros",
                                "config": {},
                                "registered_name": null
                            },
                            "gamma_initializer": {
                                "module": "keras.initializers",
                                "class_name": "Ones",
                                "config": {},
                                "registered_name": null
                            },
                            "moving_mean_initializer": {
                                "module": "keras.initializers",
                                "class_name": "Zeros",
                                "config": {},
                                "registered_name": null
                            },
                            "moving_variance_initializer": {
                                "module": "keras.initializers",
                                "class_name": "Ones",
                                "config": {},
                                "registered_name": null
                            },
                            "beta_regularizer": null,
                            "gamma_regularizer": null,
                            "beta_constraint": null,
                            "gamma_constraint": null
                        },
                        "name": "batch_normalization_4",
                        "inbound_nodes": [
                            [
                                [
                                    "conv3d_4",
                                    0,
                                    0,
                                    {}
                                ]
                            ]
                        ]
                    },
                    {
                        "class_name": "ReLU",
                        "config": {
                            "name": "re_lu_4",
                            "trainable": true,
                            "dtype": "float32",
                            "max_value": null,
                            "negative_slope": 0.0,
                            "threshold": 0.0
                        },
                        "name": "re_lu_4",
                        "inbound_nodes": [
                            [
                                [
                                    "batch_normalization_4",
                                    0,
                                    0,
                                    {}
                                ]
                            ]
                        ]
                    },
                    {
                        "class_name": "Conv3D",
                        "config": {
                            "name": "conv3d_5",
                            "trainable": true,
                            "dtype": "float32",
                            "filters": 64,
                            "kernel_size": [
                                3,
                                3,
                                3
                            ],
                            "strides": [
                                1,
                                1,
                                1
                            ],
                            "padding": "same",
                            "data_format": "channels_last",
                            "dilation_rate": [
                                1,
                                1,
                                1
                            ],
                            "groups": 1,
                            "activation": "linear",
                            "use_bias": false,
                            "kernel_initializer": {
                                "module": "keras.initializers",
                                "class_name": "GlorotUniform",
                                "config": {
                                    "seed": null
                                },
                                "registered_name": null
                            },
                            "bias_initializer": {
                                "module": "keras.initializers",
                                "class_name": "Zeros",
                                "config": {},
                                "registered_name": null
                            },
                            "kernel_regularizer": null,
                            "bias_regularizer": null,
                            "activity_regularizer": null,
                            "kernel_constraint": null,
                            "bias_constraint": null
                        },
                        "name": "conv3d_5",
                        "inbound_nodes": [
                            [
                                [
                                    "re_lu_4",
                                    0,
                                    0,
                                    {}
                                ]
                            ]
                        ]
                    },
                    {
                        "class_name": "BatchNormalization",
                        "config": {
                            "name": "batch_normalization_5",
                            "trainable": true,
                            "dtype": "float32",
                            "axis": [
                                4
                            ],
                            "momentum": 0.99,
                            "epsilon": 0.001,
                            "center": true,
                            "scale": true,
                            "beta_initializer": {
                                "module": "keras.initializers",
                                "class_name": "Zeros",
                                "config": {},
                                "registered_name": null
                            },
                            "gamma_initializer": {
                                "module": "keras.initializers",
                                "class_name": "Ones",
                                "config": {},
                                "registered_name": null
                            },
                            "moving_mean_initializer": {
                                "module": "keras.initializers",
                                "class_name": "Zeros",
                                "config": {},
                                "registered_name": null
                            },
                            "moving_variance_initializer": {
                                "module": "keras.initializers",
                                "class_name": "Ones",
                                "config": {},
                                "registered_name": null
                            },
                            "beta_regularizer": null,
                            "gamma_regularizer": null,
                            "beta_constraint": null,
                            "gamma_constraint": null
                        },
                        "name": "batch_normalization_5",
                        "inbound_nodes": [
                            [
                                [
                                    "conv3d_5",
                                    0,
                                    0,
                                    {}
                                ]
                            ]
                        ]
                    },
                    {
                        "class_name": "ReLU",
                        "config": {
                            "name": "re_lu_5",
                            "trainable": true,
                            "dtype": "float32",
                            "max_value": null,
                            "negative_slope": 0.0,
                            "threshold": 0.0
                        },
                        "name": "re_lu_5",
                        "inbound_nodes": [
                            [
                                [
                                    "batch_normalization_5",
                                    0,
                                    0,
                                    {}
                                ]
                            ]
                        ]
                    },
                    {
                        "class_name": "MaxPooling3D",
                        "config": {
                            "name": "max_pooling3d_2",
                            "trainable": true,
                            "dtype": "float32",
                            "pool_size": [
                                2,
                                2,
                                2
                            ],
                            "padding": "valid",
                            "strides": [
                                2,
                                2,
                                2
                            ],
                            "data_format": "channels_last"
                        },
                        "name": "max_pooling3d_2",
                        "inbound_nodes": [
                            [
                                [
                                    "re_lu_5",
                                    0,
                                    0,
                                    {}
                                ]
                            ]
                        ]
                    },
                    {
                        "class_name": "Conv3D",
                        "config": {
                            "name": "conv3d_6",
                            "trainable": true,
                            "dtype": "float32",
                            "filters": 128,
                            "kernel_size": [
                                3,
                                3,
                                3
                            ],
                            "strides": [
                                1,
                                1,
                                1
                            ],
                            "padding": "same",
                            "data_format": "channels_last",
                            "dilation_rate": [
                                1,
                                1,
                                1
                            ],
                            "groups": 1,
                            "activation": "linear",
                            "use_bias": false,
                            "kernel_initializer": {
                                "module": "keras.initializers",
                                "class_name": "GlorotUniform",
                                "config": {
                                    "seed": null
                                },
                                "registered_name": null
                            },
                            "bias_initializer": {
                                "module": "keras.initializers",
                                "class_name": "Zeros",
                                "config": {},
                                "registered_name": null
                            },
                            "kernel_regularizer": null,
                            "bias_regularizer": null,
                            "activity_regularizer": null,
                            "kernel_constraint": null,
                            "bias_constraint": null
                        },
                        "name": "conv3d_6",
                        "inbound_nodes": [
                            [
                                [
                                    "max_pooling3d_2",
                                    0,
                                    0,
                                    {}
                                ]
                            ]
                        ]
                    },
                    {
                        "class_name": "BatchNormalization",
                        "config": {
                            "name": "batch_normalization_6",
                            "trainable": true,
                            "dtype": "float32",
                            "axis": [
                                4
                            ],
                            "momentum": 0.99,
                            "epsilon": 0.001,
                            "center": true,
                            "scale": true,
                            "beta_initializer": {
                                "module": "keras.initializers",
                                "class_name": "Zeros",
                                "config": {},
                                "registered_name": null
                            },
                            "gamma_initializer": {
                                "module": "keras.initializers",
                                "class_name": "Ones",
                                "config": {},
                                "registered_name": null
                            },
                            "moving_mean_initializer": {
                                "module": "keras.initializers",
                                "class_name": "Zeros",
                                "config": {},
                                "registered_name": null
                            },
                            "moving_variance_initializer": {
                                "module": "keras.initializers",
                                "class_name": "Ones",
                                "config": {},
                                "registered_name": null
                            },
                            "beta_regularizer": null,
                            "gamma_regularizer": null,
                            "beta_constraint": null,
                            "gamma_constraint": null
                        },
                        "name": "batch_normalization_6",
                        "inbound_nodes": [
                            [
                                [
                                    "conv3d_6",
                                    0,
                                    0,
                                    {}
                                ]
                            ]
                        ]
                    },
                    {
                        "class_name": "ReLU",
                        "config": {
                            "name": "re_lu_6",
                            "trainable": true,
                            "dtype": "float32",
                            "max_value": null,
                            "negative_slope": 0.0,
                            "threshold": 0.0
                        },
                        "name": "re_lu_6",
                        "inbound_nodes": [
                            [
                                [
                                    "batch_normalization_6",
                                    0,
                                    0,
                                    {}
                                ]
                            ]
                        ]
                    },
                    {
                        "class_name": "Conv3D",
                        "config": {
                            "name": "conv3d_7",
                            "trainable": true,
                            "dtype": "float32",
                            "filters": 128,
                            "kernel_size": [
                                3,
                                3,
                                3
                            ],
                            "strides": [
                                1,
                                1,
                                1
                            ],
                            "padding": "same",
                            "data_format": "channels_last",
                            "dilation_rate": [
                                1,
                                1,
                                1
                            ],
                            "groups": 1,
                            "activation": "linear",
                            "use_bias": false,
                            "kernel_initializer": {
                                "module": "keras.initializers",
                                "class_name": "GlorotUniform",
                                "config": {
                                    "seed": null
                                },
                                "registered_name": null
                            },
                            "bias_initializer": {
                                "module": "keras.initializers",
                                "class_name": "Zeros",
                                "config": {},
                                "registered_name": null
                            },
                            "kernel_regularizer": null,
                            "bias_regularizer": null,
                            "activity_regularizer": null,
                            "kernel_constraint": null,
                            "bias_constraint": null
                        },
                        "name": "conv3d_7",
                        "inbound_nodes": [
                            [
                                [
                                    "re_lu_6",
                                    0,
                                    0,
                                    {}
                                ]
                            ]
                        ]
                    },
                    {
                        "class_name": "BatchNormalization",
                        "config": {
                            "name": "batch_normalization_7",
                            "trainable": true,
                            "dtype": "float32",
                            "axis": [
                                4
                            ],
                            "momentum": 0.99,
                            "epsilon": 0.001,
                            "center": true,
                            "scale": true,
                            "beta_initializer": {
                                "module": "keras.initializers",
                                "class_name": "Zeros",
                                "config": {},
                                "registered_name": null
                            },
                            "gamma_initializer": {
                                "module": "keras.initializers",
                                "class_name": "Ones",
                                "config": {},
                                "registered_name": null
                            },
                            "moving_mean_initializer": {
                                "module": "keras.initializers",
                                "class_name": "Zeros",
                                "config": {},
                                "registered_name": null
                            },
                            "moving_variance_initializer": {
                                "module": "keras.initializers",
                                "class_name": "Ones",
                                "config": {},
                                "registered_name": null
                            },
                            "beta_regularizer": null,
                            "gamma_regularizer": null,
                            "beta_constraint": null,
                            "gamma_constraint": null
                        },
                        "name": "batch_normalization_7",
                        "inbound_nodes": [
                            [
                                [
                                    "conv3d_7",
                                    0,
                                    0,
                                    {}
                                ]
                            ]
                        ]
                    },
                    {
                        "class_name": "ReLU",
                        "config": {
                            "name": "re_lu_7",
                            "trainable": true,
                            "dtype": "float32",
                            "max_value": null,
                            "negative_slope": 0.0,
                            "threshold": 0.0
                        },
                        "name": "re_lu_7",
                        "inbound_nodes": [
                            [
                                [
                                    "batch_normalization_7",
                                    0,
                                    0,
                                    {}
                                ]
                            ]
                        ]
                    },
                    {
                        "class_name": "MaxPooling3D",
                        "config": {
                            "name": "max_pooling3d_3",
                            "trainable": true,
                            "dtype": "float32",
                            "pool_size": [
                                2,
                                2,
                                2
                            ],
                            "padding": "valid",
                            "strides": [
                                2,
                                2,
                                2
                            ],
                            "data_format": "channels_last"
                        },
                        "name": "max_pooling3d_3",
                        "inbound_nodes": [
                            [
                                [
                                    "re_lu_7",
                                    0,
                                    0,
                                    {}
                                ]
                            ]
                        ]
                    },
                    {
                        "class_name": "Conv3D",
                        "config": {
                            "name": "conv3d_8",
                            "trainable": true,
                            "dtype": "float32",
                            "filters": 256,
                            "kernel_size": [
                                3,
                                3,
                                3
                            ],
                            "strides": [
                                1,
                                1,
                                1
                            ],
                            "padding": "same",
                            "data_format": "channels_last",
                            "dilation_rate": [
                                1,
                                1,
                                1
                            ],
                            "groups": 1,
                            "activation": "linear",
                            "use_bias": false,
                            "kernel_initializer": {
                                "module": "keras.initializers",
                                "class_name": "GlorotUniform",
                                "config": {
                                    "seed": null
                                },
                                "registered_name": null
                            },
                            "bias_initializer": {
                                "module": "keras.initializers",
                                "class_name": "Zeros",
                                "config": {},
                                "registered_name": null
                            },
                            "kernel_regularizer": null,
                            "bias_regularizer": null,
                            "activity_regularizer": null,
                            "kernel_constraint": null,
                            "bias_constraint": null
                        },
                        "name": "conv3d_8",
                        "inbound_nodes": [
                            [
                                [
                                    "max_pooling3d_3",
                                    0,
                                    0,
                                    {}
                                ]
                            ]
                        ]
                    },
                    {
                        "class_name": "BatchNormalization",
                        "config": {
                            "name": "batch_normalization_8",
                            "trainable": true,
                            "dtype": "float32",
                            "axis": [
                                4
                            ],
                            "momentum": 0.99,
                            "epsilon": 0.001,
                            "center": true,
                            "scale": true,
                            "beta_initializer": {
                                "module": "keras.initializers",
                                "class_name": "Zeros",
                                "config": {},
                                "registered_name": null
                            },
                            "gamma_initializer": {
                                "module": "keras.initializers",
                                "class_name": "Ones",
                                "config": {},
                                "registered_name": null
                            },
                            "moving_mean_initializer": {
                                "module": "keras.initializers",
                                "class_name": "Zeros",
                                "config": {},
                                "registered_name": null
                            },
                            "moving_variance_initializer": {
                                "module": "keras.initializers",
                                "class_name": "Ones",
                                "config": {},
                                "registered_name": null
                            },
                            "beta_regularizer": null,
                            "gamma_regularizer": null,
                            "beta_constraint": null,
                            "gamma_constraint": null
                        },
                        "name": "batch_normalization_8",
                        "inbound_nodes": [
                            [
                                [
                                    "conv3d_8",
                                    0,
                                    0,
                                    {}
                                ]
                            ]
                        ]
                    },
                    {
                        "class_name": "ReLU",
                        "config": {
                            "name": "re_lu_8",
                            "trainable": true,
                            "dtype": "float32",
                            "max_value": null,
                            "negative_slope": 0.0,
                            "threshold": 0.0
                        },
                        "name": "re_lu_8",
                        "inbound_nodes": [
                            [
                                [
                                    "batch_normalization_8",
                                    0,
                                    0,
                                    {}
                                ]
                            ]
                        ]
                    },
                    {
                        "class_name": "Conv3D",
                        "config": {
                            "name": "conv3d_9",
                            "trainable": true,
                            "dtype": "float32",
                            "filters": 256,
                            "kernel_size": [
                                3,
                                3,
                                3
                            ],
                            "strides": [
                                1,
                                1,
                                1
                            ],
                            "padding": "same",
                            "data_format": "channels_last",
                            "dilation_rate": [
                                1,
                                1,
                                1
                            ],
                            "groups": 1,
                            "activation": "linear",
                            "use_bias": false,
                            "kernel_initializer": {
                                "module": "keras.initializers",
                                "class_name": "GlorotUniform",
                                "config": {
                                    "seed": null
                                },
                                "registered_name": null
                            },
                            "bias_initializer": {
                                "module": "keras.initializers",
                                "class_name": "Zeros",
                                "config": {},
                                "registered_name": null
                            },
                            "kernel_regularizer": null,
                            "bias_regularizer": null,
                            "activity_regularizer": null,
                            "kernel_constraint": null,
                            "bias_constraint": null
                        },
                        "name": "conv3d_9",
                        "inbound_nodes": [
                            [
                                [
                                    "re_lu_8",
                                    0,
                                    0,
                                    {}
                                ]
                            ]
                        ]
                    },
                    {
                        "class_name": "BatchNormalization",
                        "config": {
                            "name": "batch_normalization_9",
                            "trainable": true,
                            "dtype": "float32",
                            "axis": [
                                4
                            ],
                            "momentum": 0.99,
                            "epsilon": 0.001,
                            "center": true,
                            "scale": true,
                            "beta_initializer": {
                                "module": "keras.initializers",
                                "class_name": "Zeros",
                                "config": {},
                                "registered_name": null
                            },
                            "gamma_initializer": {
                                "module": "keras.initializers",
                                "class_name": "Ones",
                                "config": {},
                                "registered_name": null
                            },
                            "moving_mean_initializer": {
                                "module": "keras.initializers",
                                "class_name": "Zeros",
                                "config": {},
                                "registered_name": null
                            },
                            "moving_variance_initializer": {
                                "module": "keras.initializers",
                                "class_name": "Ones",
                                "config": {},
                                "registered_name": null
                            },
                            "beta_regularizer": null,
                            "gamma_regularizer": null,
                            "beta_constraint": null,
                            "gamma_constraint": null
                        },
                        "name": "batch_normalization_9",
                        "inbound_nodes": [
                            [
                                [
                                    "conv3d_9",
                                    0,
                                    0,
                                    {}
                                ]
                            ]
                        ]
                    },
                    {
                        "class_name": "ReLU",
                        "config": {
                            "name": "re_lu_9",
                            "trainable": true,
                            "dtype": "float32",
                            "max_value": null,
                            "negative_slope": 0.0,
                            "threshold": 0.0
                        },
                        "name": "re_lu_9",
                        "inbound_nodes": [
                            [
                                [
                                    "batch_normalization_9",
                                    0,
                                    0,
                                    {}
                                ]
                            ]
                        ]
                    },
                    {
                        "class_name": "MaxPooling3D",
                        "config": {
                            "name": "max_pooling3d_4",
                            "trainable": true,
                            "dtype": "float32",
                            "pool_size": [
                                2,
                                2,
                                2
                            ],
                            "padding": "valid",
                            "strides": [
                                2,
                                2,
                                2
                            ],
                            "data_format": "channels_last"
                        },
                        "name": "max_pooling3d_4",
                        "inbound_nodes": [
                            [
                                [
                                    "re_lu_9",
                                    0,
                                    0,
                                    {}
                                ]
                            ]
                        ]
                    },
                    {
                        "class_name": "Conv3D",
                        "config": {
                            "name": "conv3d_10",
                            "trainable": true,
                            "dtype": "float32",
                            "filters": 512,
                            "kernel_size": [
                                3,
                                3,
                                3
                            ],
                            "strides": [
                                1,
                                1,
                                1
                            ],
                            "padding": "same",
                            "data_format": "channels_last",
                            "dilation_rate": [
                                1,
                                1,
                                1
                            ],
                            "groups": 1,
                            "activation": "relu",
                            "use_bias": true,
                            "kernel_initializer": {
                                "module": "keras.initializers",
                                "class_name": "HeNormal",
                                "config": {
                                    "seed": null
                                },
                                "registered_name": null
                            },
                            "bias_initializer": {
                                "module": "keras.initializers",
                                "class_name": "Zeros",
                                "config": {},
                                "registered_name": null
                            },
                            "kernel_regularizer": null,
                            "bias_regularizer": null,
                            "activity_regularizer": null,
                            "kernel_constraint": null,
                            "bias_constraint": null
                        },
                        "name": "conv3d_10",
                        "inbound_nodes": [
                            [
                                [
                                    "max_pooling3d_4",
                                    0,
                                    0,
                                    {}
                                ]
                            ]
                        ]
                    },
                    {
                        "class_name": "Conv3D",
                        "config": {
                            "name": "conv3d_11",
                            "trainable": true,
                            "dtype": "float32",
                            "filters": 512,
                            "kernel_size": [
                                3,
                                3,
                                3
                            ],
                            "strides": [
                                1,
                                1,
                                1
                            ],
                            "padding": "same",
                            "data_format": "channels_last",
                            "dilation_rate": [
                                1,
                                1,
                                1
                            ],
                            "groups": 1,
                            "activation": "relu",
                            "use_bias": true,
                            "kernel_initializer": {
                                "module": "keras.initializers",
                                "class_name": "HeNormal",
                                "config": {
                                    "seed": null
                                },
                                "registered_name": null
                            },
                            "bias_initializer": {
                                "module": "keras.initializers",
                                "class_name": "Zeros",
                                "config": {},
                                "registered_name": null
                            },
                            "kernel_regularizer": null,
                            "bias_regularizer": null,
                            "activity_regularizer": null,
                            "kernel_constraint": null,
                            "bias_constraint": null
                        },
                        "name": "conv3d_11",
                        "inbound_nodes": [
                            [
                                [
                                    "conv3d_10",
                                    0,
                                    0,
                                    {}
                                ]
                            ]
                        ]
                    },
                    {
                        "class_name": "Conv3DTranspose",
                        "config": {
                            "name": "conv3d_transpose",
                            "trainable": true,
                            "dtype": "float32",
                            "filters": 256,
                            "kernel_size": [
                                3,
                                3,
                                3
                            ],
                            "strides": [
                                2,
                                2,
                                2
                            ],
                            "padding": "same",
                            "data_format": "channels_last",
                            "groups": 1,
                            "activation": "linear",
                            "use_bias": true,
                            "kernel_initializer": {
                                "module": "keras.initializers",
                                "class_name": "GlorotUniform",
                                "config": {
                                    "seed": null
                                },
                                "registered_name": null
                            },
                            "bias_initializer": {
                                "module": "keras.initializers",
                                "class_name": "Zeros",
                                "config": {},
                                "registered_name": null
                            },
                            "kernel_regularizer": null,
                            "bias_regularizer": null,
                            "activity_regularizer": null,
                            "kernel_constraint": null,
                            "bias_constraint": null,
                            "output_padding": null
                        },
                        "name": "conv3d_transpose",
                        "inbound_nodes": [
                            [
                                [
                                    "conv3d_11",
                                    0,
                                    0,
                                    {}
                                ]
                            ]
                        ]
                    },
                    {
                        "class_name": "Concatenate",
                        "config": {
                            "name": "concatenate",
                            "trainable": true,
                            "dtype": "float32",
                            "axis": -1
                        },
                        "name": "concatenate",
                        "inbound_nodes": [
                            [
                                [
                                    "conv3d_transpose",
                                    0,
                                    0,
                                    {}
                                ],
                                [
                                    "re_lu_9",
                                    0,
                                    0,
                                    {}
                                ]
                            ]
                        ]
                    },
                    {
                        "class_name": "Conv3D",
                        "config": {
                            "name": "conv3d_12",
                            "trainable": true,
                            "dtype": "float32",
                            "filters": 256,
                            "kernel_size": [
                                3,
                                3,
                                3
                            ],
                            "strides": [
                                1,
                                1,
                                1
                            ],
                            "padding": "same",
                            "data_format": "channels_last",
                            "dilation_rate": [
                                1,
                                1,
                                1
                            ],
                            "groups": 1,
                            "activation": "relu",
                            "use_bias": true,
                            "kernel_initializer": {
                                "module": "keras.initializers",
                                "class_name": "HeNormal",
                                "config": {
                                    "seed": null
                                },
                                "registered_name": null
                            },
                            "bias_initializer": {
                                "module": "keras.initializers",
                                "class_name": "Zeros",
                                "config": {},
                                "registered_name": null
                            },
                            "kernel_regularizer": null,
                            "bias_regularizer": null,
                            "activity_regularizer": null,
                            "kernel_constraint": null,
                            "bias_constraint": null
                        },
                        "name": "conv3d_12",
                        "inbound_nodes": [
                            [
                                [
                                    "concatenate",
                                    0,
                                    0,
                                    {}
                                ]
                            ]
                        ]
                    },
                    {
                        "class_name": "BatchNormalization",
                        "config": {
                            "name": "batch_normalization_10",
                            "trainable": true,
                            "dtype": "float32",
                            "axis": [
                                4
                            ],
                            "momentum": 0.99,
                            "epsilon": 0.001,
                            "center": true,
                            "scale": true,
                            "beta_initializer": {
                                "module": "keras.initializers",
                                "class_name": "Zeros",
                                "config": {},
                                "registered_name": null
                            },
                            "gamma_initializer": {
                                "module": "keras.initializers",
                                "class_name": "Ones",
                                "config": {},
                                "registered_name": null
                            },
                            "moving_mean_initializer": {
                                "module": "keras.initializers",
                                "class_name": "Zeros",
                                "config": {},
                                "registered_name": null
                            },
                            "moving_variance_initializer": {
                                "module": "keras.initializers",
                                "class_name": "Ones",
                                "config": {},
                                "registered_name": null
                            },
                            "beta_regularizer": null,
                            "gamma_regularizer": null,
                            "beta_constraint": null,
                            "gamma_constraint": null
                        },
                        "name": "batch_normalization_10",
                        "inbound_nodes": [
                            [
                                [
                                    "conv3d_12",
                                    0,
                                    0,
                                    {}
                                ]
                            ]
                        ]
                    },
                    {
                        "class_name": "ReLU",
                        "config": {
                            "name": "re_lu_10",
                            "trainable": true,
                            "dtype": "float32",
                            "max_value": null,
                            "negative_slope": 0.0,
                            "threshold": 0.0
                        },
                        "name": "re_lu_10",
                        "inbound_nodes": [
                            [
                                [
                                    "batch_normalization_10",
                                    0,
                                    0,
                                    {}
                                ]
                            ]
                        ]
                    },
                    {
                        "class_name": "Conv3D",
                        "config": {
                            "name": "conv3d_13",
                            "trainable": true,
                            "dtype": "float32",
                            "filters": 256,
                            "kernel_size": [
                                3,
                                3,
                                3
                            ],
                            "strides": [
                                1,
                                1,
                                1
                            ],
                            "padding": "same",
                            "data_format": "channels_last",
                            "dilation_rate": [
                                1,
                                1,
                                1
                            ],
                            "groups": 1,
                            "activation": "relu",
                            "use_bias": true,
                            "kernel_initializer": {
                                "module": "keras.initializers",
                                "class_name": "HeNormal",
                                "config": {
                                    "seed": null
                                },
                                "registered_name": null
                            },
                            "bias_initializer": {
                                "module": "keras.initializers",
                                "class_name": "Zeros",
                                "config": {},
                                "registered_name": null
                            },
                            "kernel_regularizer": null,
                            "bias_regularizer": null,
                            "activity_regularizer": null,
                            "kernel_constraint": null,
                            "bias_constraint": null
                        },
                        "name": "conv3d_13",
                        "inbound_nodes": [
                            [
                                [
                                    "re_lu_10",
                                    0,
                                    0,
                                    {}
                                ]
                            ]
                        ]
                    },
                    {
                        "class_name": "BatchNormalization",
                        "config": {
                            "name": "batch_normalization_11",
                            "trainable": true,
                            "dtype": "float32",
                            "axis": [
                                4
                            ],
                            "momentum": 0.99,
                            "epsilon": 0.001,
                            "center": true,
                            "scale": true,
                            "beta_initializer": {
                                "module": "keras.initializers",
                                "class_name": "Zeros",
                                "config": {},
                                "registered_name": null
                            },
                            "gamma_initializer": {
                                "module": "keras.initializers",
                                "class_name": "Ones",
                                "config": {},
                                "registered_name": null
                            },
                            "moving_mean_initializer": {
                                "module": "keras.initializers",
                                "class_name": "Zeros",
                                "config": {},
                                "registered_name": null
                            },
                            "moving_variance_initializer": {
                                "module": "keras.initializers",
                                "class_name": "Ones",
                                "config": {},
                                "registered_name": null
                            },
                            "beta_regularizer": null,
                            "gamma_regularizer": null,
                            "beta_constraint": null,
                            "gamma_constraint": null
                        },
                        "name": "batch_normalization_11",
                        "inbound_nodes": [
                            [
                                [
                                    "conv3d_13",
                                    0,
                                    0,
                                    {}
                                ]
                            ]
                        ]
                    },
                    {
                        "class_name": "ReLU",
                        "config": {
                            "name": "re_lu_11",
                            "trainable": true,
                            "dtype": "float32",
                            "max_value": null,
                            "negative_slope": 0.0,
                            "threshold": 0.0
                        },
                        "name": "re_lu_11",
                        "inbound_nodes": [
                            [
                                [
                                    "batch_normalization_11",
                                    0,
                                    0,
                                    {}
                                ]
                            ]
                        ]
                    },
                    {
                        "class_name": "Conv3DTranspose",
                        "config": {
                            "name": "conv3d_transpose_1",
                            "trainable": true,
                            "dtype": "float32",
                            "filters": 128,
                            "kernel_size": [
                                3,
                                3,
                                3
                            ],
                            "strides": [
                                2,
                                2,
                                2
                            ],
                            "padding": "same",
                            "data_format": "channels_last",
                            "groups": 1,
                            "activation": "linear",
                            "use_bias": true,
                            "kernel_initializer": {
                                "module": "keras.initializers",
                                "class_name": "GlorotUniform",
                                "config": {
                                    "seed": null
                                },
                                "registered_name": null
                            },
                            "bias_initializer": {
                                "module": "keras.initializers",
                                "class_name": "Zeros",
                                "config": {},
                                "registered_name": null
                            },
                            "kernel_regularizer": null,
                            "bias_regularizer": null,
                            "activity_regularizer": null,
                            "kernel_constraint": null,
                            "bias_constraint": null,
                            "output_padding": null
                        },
                        "name": "conv3d_transpose_1",
                        "inbound_nodes": [
                            [
                                [
                                    "re_lu_11",
                                    0,
                                    0,
                                    {}
                                ]
                            ]
                        ]
                    },
                    {
                        "class_name": "Concatenate",
                        "config": {
                            "name": "concatenate_1",
                            "trainable": true,
                            "dtype": "float32",
                            "axis": -1
                        },
                        "name": "concatenate_1",
                        "inbound_nodes": [
                            [
                                [
                                    "conv3d_transpose_1",
                                    0,
                                    0,
                                    {}
                                ],
                                [
                                    "re_lu_7",
                                    0,
                                    0,
                                    {}
                                ]
                            ]
                        ]
                    },
                    {
                        "class_name": "Conv3D",
                        "config": {
                            "name": "conv3d_14",
                            "trainable": true,
                            "dtype": "float32",
                            "filters": 128,
                            "kernel_size": [
                                3,
                                3,
                                3
                            ],
                            "strides": [
                                1,
                                1,
                                1
                            ],
                            "padding": "same",
                            "data_format": "channels_last",
                            "dilation_rate": [
                                1,
                                1,
                                1
                            ],
                            "groups": 1,
                            "activation": "relu",
                            "use_bias": true,
                            "kernel_initializer": {
                                "module": "keras.initializers",
                                "class_name": "HeNormal",
                                "config": {
                                    "seed": null
                                },
                                "registered_name": null
                            },
                            "bias_initializer": {
                                "module": "keras.initializers",
                                "class_name": "Zeros",
                                "config": {},
                                "registered_name": null
                            },
                            "kernel_regularizer": null,
                            "bias_regularizer": null,
                            "activity_regularizer": null,
                            "kernel_constraint": null,
                            "bias_constraint": null
                        },
                        "name": "conv3d_14",
                        "inbound_nodes": [
                            [
                                [
                                    "concatenate_1",
                                    0,
                                    0,
                                    {}
                                ]
                            ]
                        ]
                    },
                    {
                        "class_name": "BatchNormalization",
                        "config": {
                            "name": "batch_normalization_12",
                            "trainable": true,
                            "dtype": "float32",
                            "axis": [
                                4
                            ],
                            "momentum": 0.99,
                            "epsilon": 0.001,
                            "center": true,
                            "scale": true,
                            "beta_initializer": {
                                "module": "keras.initializers",
                                "class_name": "Zeros",
                                "config": {},
                                "registered_name": null
                            },
                            "gamma_initializer": {
                                "module": "keras.initializers",
                                "class_name": "Ones",
                                "config": {},
                                "registered_name": null
                            },
                            "moving_mean_initializer": {
                                "module": "keras.initializers",
                                "class_name": "Zeros",
                                "config": {},
                                "registered_name": null
                            },
                            "moving_variance_initializer": {
                                "module": "keras.initializers",
                                "class_name": "Ones",
                                "config": {},
                                "registered_name": null
                            },
                            "beta_regularizer": null,
                            "gamma_regularizer": null,
                            "beta_constraint": null,
                            "gamma_constraint": null
                        },
                        "name": "batch_normalization_12",
                        "inbound_nodes": [
                            [
                                [
                                    "conv3d_14",
                                    0,
                                    0,
                                    {}
                                ]
                            ]
                        ]
                    },
                    {
                        "class_name": "ReLU",
                        "config": {
                            "name": "re_lu_12",
                            "trainable": true,
                            "dtype": "float32",
                            "max_value": null,
                            "negative_slope": 0.0,
                            "threshold": 0.0
                        },
                        "name": "re_lu_12",
                        "inbound_nodes": [
                            [
                                [
                                    "batch_normalization_12",
                                    0,
                                    0,
                                    {}
                                ]
                            ]
                        ]
                    },
                    {
                        "class_name": "Conv3D",
                        "config": {
                            "name": "conv3d_15",
                            "trainable": true,
                            "dtype": "float32",
                            "filters": 128,
                            "kernel_size": [
                                3,
                                3,
                                3
                            ],
                            "strides": [
                                1,
                                1,
                                1
                            ],
                            "padding": "same",
                            "data_format": "channels_last",
                            "dilation_rate": [
                                1,
                                1,
                                1
                            ],
                            "groups": 1,
                            "activation": "relu",
                            "use_bias": true,
                            "kernel_initializer": {
                                "module": "keras.initializers",
                                "class_name": "HeNormal",
                                "config": {
                                    "seed": null
                                },
                                "registered_name": null
                            },
                            "bias_initializer": {
                                "module": "keras.initializers",
                                "class_name": "Zeros",
                                "config": {},
                                "registered_name": null
                            },
                            "kernel_regularizer": null,
                            "bias_regularizer": null,
                            "activity_regularizer": null,
                            "kernel_constraint": null,
                            "bias_constraint": null
                        },
                        "name": "conv3d_15",
                        "inbound_nodes": [
                            [
                                [
                                    "re_lu_12",
                                    0,
                                    0,
                                    {}
                                ]
                            ]
                        ]
                    },
                    {
                        "class_name": "BatchNormalization",
                        "config": {
                            "name": "batch_normalization_13",
                            "trainable": true,
                            "dtype": "float32",
                            "axis": [
                                4
                            ],
                            "momentum": 0.99,
                            "epsilon": 0.001,
                            "center": true,
                            "scale": true,
                            "beta_initializer": {
                                "module": "keras.initializers",
                                "class_name": "Zeros",
                                "config": {},
                                "registered_name": null
                            },
                            "gamma_initializer": {
                                "module": "keras.initializers",
                                "class_name": "Ones",
                                "config": {},
                                "registered_name": null
                            },
                            "moving_mean_initializer": {
                                "module": "keras.initializers",
                                "class_name": "Zeros",
                                "config": {},
                                "registered_name": null
                            },
                            "moving_variance_initializer": {
                                "module": "keras.initializers",
                                "class_name": "Ones",
                                "config": {},
                                "registered_name": null
                            },
                            "beta_regularizer": null,
                            "gamma_regularizer": null,
                            "beta_constraint": null,
                            "gamma_constraint": null
                        },
                        "name": "batch_normalization_13",
                        "inbound_nodes": [
                            [
                                [
                                    "conv3d_15",
                                    0,
                                    0,
                                    {}
                                ]
                            ]
                        ]
                    },
                    {
                        "class_name": "ReLU",
                        "config": {
                            "name": "re_lu_13",
                            "trainable": true,
                            "dtype": "float32",
                            "max_value": null,
                            "negative_slope": 0.0,
                            "threshold": 0.0
                        },
                        "name": "re_lu_13",
                        "inbound_nodes": [
                            [
                                [
                                    "batch_normalization_13",
                                    0,
                                    0,
                                    {}
                                ]
                            ]
                        ]
                    },
                    {
                        "class_name": "Conv3DTranspose",
                        "config": {
                            "name": "conv3d_transpose_2",
                            "trainable": true,
                            "dtype": "float32",
                            "filters": 64,
                            "kernel_size": [
                                3,
                                3,
                                3
                            ],
                            "strides": [
                                2,
                                2,
                                2
                            ],
                            "padding": "same",
                            "data_format": "channels_last",
                            "groups": 1,
                            "activation": "linear",
                            "use_bias": true,
                            "kernel_initializer": {
                                "module": "keras.initializers",
                                "class_name": "GlorotUniform",
                                "config": {
                                    "seed": null
                                },
                                "registered_name": null
                            },
                            "bias_initializer": {
                                "module": "keras.initializers",
                                "class_name": "Zeros",
                                "config": {},
                                "registered_name": null
                            },
                            "kernel_regularizer": null,
                            "bias_regularizer": null,
                            "activity_regularizer": null,
                            "kernel_constraint": null,
                            "bias_constraint": null,
                            "output_padding": null
                        },
                        "name": "conv3d_transpose_2",
                        "inbound_nodes": [
                            [
                                [
                                    "re_lu_13",
                                    0,
                                    0,
                                    {}
                                ]
                            ]
                        ]
                    },
                    {
                        "class_name": "Concatenate",
                        "config": {
                            "name": "concatenate_2",
                            "trainable": true,
                            "dtype": "float32",
                            "axis": -1
                        },
                        "name": "concatenate_2",
                        "inbound_nodes": [
                            [
                                [
                                    "conv3d_transpose_2",
                                    0,
                                    0,
                                    {}
                                ],
                                [
                                    "re_lu_5",
                                    0,
                                    0,
                                    {}
                                ]
                            ]
                        ]
                    },
                    {
                        "class_name": "Conv3D",
                        "config": {
                            "name": "conv3d_16",
                            "trainable": true,
                            "dtype": "float32",
                            "filters": 64,
                            "kernel_size": [
                                3,
                                3,
                                3
                            ],
                            "strides": [
                                1,
                                1,
                                1
                            ],
                            "padding": "same",
                            "data_format": "channels_last",
                            "dilation_rate": [
                                1,
                                1,
                                1
                            ],
                            "groups": 1,
                            "activation": "relu",
                            "use_bias": true,
                            "kernel_initializer": {
                                "module": "keras.initializers",
                                "class_name": "HeNormal",
                                "config": {
                                    "seed": null
                                },
                                "registered_name": null
                            },
                            "bias_initializer": {
                                "module": "keras.initializers",
                                "class_name": "Zeros",
                                "config": {},
                                "registered_name": null
                            },
                            "kernel_regularizer": null,
                            "bias_regularizer": null,
                            "activity_regularizer": null,
                            "kernel_constraint": null,
                            "bias_constraint": null
                        },
                        "name": "conv3d_16",
                        "inbound_nodes": [
                            [
                                [
                                    "concatenate_2",
                                    0,
                                    0,
                                    {}
                                ]
                            ]
                        ]
                    },
                    {
                        "class_name": "BatchNormalization",
                        "config": {
                            "name": "batch_normalization_14",
                            "trainable": true,
                            "dtype": "float32",
                            "axis": [
                                4
                            ],
                            "momentum": 0.99,
                            "epsilon": 0.001,
                            "center": true,
                            "scale": true,
                            "beta_initializer": {
                                "module": "keras.initializers",
                                "class_name": "Zeros",
                                "config": {},
                                "registered_name": null
                            },
                            "gamma_initializer": {
                                "module": "keras.initializers",
                                "class_name": "Ones",
                                "config": {},
                                "registered_name": null
                            },
                            "moving_mean_initializer": {
                                "module": "keras.initializers",
                                "class_name": "Zeros",
                                "config": {},
                                "registered_name": null
                            },
                            "moving_variance_initializer": {
                                "module": "keras.initializers",
                                "class_name": "Ones",
                                "config": {},
                                "registered_name": null
                            },
                            "beta_regularizer": null,
                            "gamma_regularizer": null,
                            "beta_constraint": null,
                            "gamma_constraint": null
                        },
                        "name": "batch_normalization_14",
                        "inbound_nodes": [
                            [
                                [
                                    "conv3d_16",
                                    0,
                                    0,
                                    {}
                                ]
                            ]
                        ]
                    },
                    {
                        "class_name": "ReLU",
                        "config": {
                            "name": "re_lu_14",
                            "trainable": true,
                            "dtype": "float32",
                            "max_value": null,
                            "negative_slope": 0.0,
                            "threshold": 0.0
                        },
                        "name": "re_lu_14",
                        "inbound_nodes": [
                            [
                                [
                                    "batch_normalization_14",
                                    0,
                                    0,
                                    {}
                                ]
                            ]
                        ]
                    },
                    {
                        "class_name": "Conv3D",
                        "config": {
                            "name": "conv3d_17",
                            "trainable": true,
                            "dtype": "float32",
                            "filters": 64,
                            "kernel_size": [
                                3,
                                3,
                                3
                            ],
                            "strides": [
                                1,
                                1,
                                1
                            ],
                            "padding": "same",
                            "data_format": "channels_last",
                            "dilation_rate": [
                                1,
                                1,
                                1
                            ],
                            "groups": 1,
                            "activation": "relu",
                            "use_bias": true,
                            "kernel_initializer": {
                                "module": "keras.initializers",
                                "class_name": "HeNormal",
                                "config": {
                                    "seed": null
                                },
                                "registered_name": null
                            },
                            "bias_initializer": {
                                "module": "keras.initializers",
                                "class_name": "Zeros",
                                "config": {},
                                "registered_name": null
                            },
                            "kernel_regularizer": null,
                            "bias_regularizer": null,
                            "activity_regularizer": null,
                            "kernel_constraint": null,
                            "bias_constraint": null
                        },
                        "name": "conv3d_17",
                        "inbound_nodes": [
                            [
                                [
                                    "re_lu_14",
                                    0,
                                    0,
                                    {}
                                ]
                            ]
                        ]
                    },
                    {
                        "class_name": "BatchNormalization",
                        "config": {
                            "name": "batch_normalization_15",
                            "trainable": true,
                            "dtype": "float32",
                            "axis": [
                                4
                            ],
                            "momentum": 0.99,
                            "epsilon": 0.001,
                            "center": true,
                            "scale": true,
                            "beta_initializer": {
                                "module": "keras.initializers",
                                "class_name": "Zeros",
                                "config": {},
                                "registered_name": null
                            },
                            "gamma_initializer": {
                                "module": "keras.initializers",
                                "class_name": "Ones",
                                "config": {},
                                "registered_name": null
                            },
                            "moving_mean_initializer": {
                                "module": "keras.initializers",
                                "class_name": "Zeros",
                                "config": {},
                                "registered_name": null
                            },
                            "moving_variance_initializer": {
                                "module": "keras.initializers",
                                "class_name": "Ones",
                                "config": {},
                                "registered_name": null
                            },
                            "beta_regularizer": null,
                            "gamma_regularizer": null,
                            "beta_constraint": null,
                            "gamma_constraint": null
                        },
                        "name": "batch_normalization_15",
                        "inbound_nodes": [
                            [
                                [
                                    "conv3d_17",
                                    0,
                                    0,
                                    {}
                                ]
                            ]
                        ]
                    },
                    {
                        "class_name": "ReLU",
                        "config": {
                            "name": "re_lu_15",
                            "trainable": true,
                            "dtype": "float32",
                            "max_value": null,
                            "negative_slope": 0.0,
                            "threshold": 0.0
                        },
                        "name": "re_lu_15",
                        "inbound_nodes": [
                            [
                                [
                                    "batch_normalization_15",
                                    0,
                                    0,
                                    {}
                                ]
                            ]
                        ]
                    },
                    {
                        "class_name": "Conv3DTranspose",
                        "config": {
                            "name": "conv3d_transpose_3",
                            "trainable": true,
                            "dtype": "float32",
                            "filters": 32,
                            "kernel_size": [
                                3,
                                3,
                                3
                            ],
                            "strides": [
                                2,
                                2,
                                2
                            ],
                            "padding": "same",
                            "data_format": "channels_last",
                            "groups": 1,
                            "activation": "linear",
                            "use_bias": true,
                            "kernel_initializer": {
                                "module": "keras.initializers",
                                "class_name": "GlorotUniform",
                                "config": {
                                    "seed": null
                                },
                                "registered_name": null
                            },
                            "bias_initializer": {
                                "module": "keras.initializers",
                                "class_name": "Zeros",
                                "config": {},
                                "registered_name": null
                            },
                            "kernel_regularizer": null,
                            "bias_regularizer": null,
                            "activity_regularizer": null,
                            "kernel_constraint": null,
                            "bias_constraint": null,
                            "output_padding": null
                        },
                        "name": "conv3d_transpose_3",
                        "inbound_nodes": [
                            [
                                [
                                    "re_lu_15",
                                    0,
                                    0,
                                    {}
                                ]
                            ]
                        ]
                    },
                    {
                        "class_name": "Concatenate",
                        "config": {
                            "name": "concatenate_3",
                            "trainable": true,
                            "dtype": "float32",
                            "axis": -1
                        },
                        "name": "concatenate_3",
                        "inbound_nodes": [
                            [
                                [
                                    "conv3d_transpose_3",
                                    0,
                                    0,
                                    {}
                                ],
                                [
                                    "re_lu_3",
                                    0,
                                    0,
                                    {}
                                ]
                            ]
                        ]
                    },
                    {
                        "class_name": "Conv3D",
                        "config": {
                            "name": "conv3d_18",
                            "trainable": true,
                            "dtype": "float32",
                            "filters": 32,
                            "kernel_size": [
                                3,
                                3,
                                3
                            ],
                            "strides": [
                                1,
                                1,
                                1
                            ],
                            "padding": "same",
                            "data_format": "channels_last",
                            "dilation_rate": [
                                1,
                                1,
                                1
                            ],
                            "groups": 1,
                            "activation": "relu",
                            "use_bias": true,
                            "kernel_initializer": {
                                "module": "keras.initializers",
                                "class_name": "HeNormal",
                                "config": {
                                    "seed": null
                                },
                                "registered_name": null
                            },
                            "bias_initializer": {
                                "module": "keras.initializers",
                                "class_name": "Zeros",
                                "config": {},
                                "registered_name": null
                            },
                            "kernel_regularizer": null,
                            "bias_regularizer": null,
                            "activity_regularizer": null,
                            "kernel_constraint": null,
                            "bias_constraint": null
                        },
                        "name": "conv3d_18",
                        "inbound_nodes": [
                            [
                                [
                                    "concatenate_3",
                                    0,
                                    0,
                                    {}
                                ]
                            ]
                        ]
                    },
                    {
                        "class_name": "BatchNormalization",
                        "config": {
                            "name": "batch_normalization_16",
                            "trainable": true,
                            "dtype": "float32",
                            "axis": [
                                4
                            ],
                            "momentum": 0.99,
                            "epsilon": 0.001,
                            "center": true,
                            "scale": true,
                            "beta_initializer": {
                                "module": "keras.initializers",
                                "class_name": "Zeros",
                                "config": {},
                                "registered_name": null
                            },
                            "gamma_initializer": {
                                "module": "keras.initializers",
                                "class_name": "Ones",
                                "config": {},
                                "registered_name": null
                            },
                            "moving_mean_initializer": {
                                "module": "keras.initializers",
                                "class_name": "Zeros",
                                "config": {},
                                "registered_name": null
                            },
                            "moving_variance_initializer": {
                                "module": "keras.initializers",
                                "class_name": "Ones",
                                "config": {},
                                "registered_name": null
                            },
                            "beta_regularizer": null,
                            "gamma_regularizer": null,
                            "beta_constraint": null,
                            "gamma_constraint": null
                        },
                        "name": "batch_normalization_16",
                        "inbound_nodes": [
                            [
                                [
                                    "conv3d_18",
                                    0,
                                    0,
                                    {}
                                ]
                            ]
                        ]
                    },
                    {
                        "class_name": "ReLU",
                        "config": {
                            "name": "re_lu_16",
                            "trainable": true,
                            "dtype": "float32",
                            "max_value": null,
                            "negative_slope": 0.0,
                            "threshold": 0.0
                        },
                        "name": "re_lu_16",
                        "inbound_nodes": [
                            [
                                [
                                    "batch_normalization_16",
                                    0,
                                    0,
                                    {}
                                ]
                            ]
                        ]
                    },
                    {
                        "class_name": "Conv3D",
                        "config": {
                            "name": "conv3d_19",
                            "trainable": true,
                            "dtype": "float32",
                            "filters": 32,
                            "kernel_size": [
                                3,
                                3,
                                3
                            ],
                            "strides": [
                                1,
                                1,
                                1
                            ],
                            "padding": "same",
                            "data_format": "channels_last",
                            "dilation_rate": [
                                1,
                                1,
                                1
                            ],
                            "groups": 1,
                            "activation": "relu",
                            "use_bias": true,
                            "kernel_initializer": {
                                "module": "keras.initializers",
                                "class_name": "HeNormal",
                                "config": {
                                    "seed": null
                                },
                                "registered_name": null
                            },
                            "bias_initializer": {
                                "module": "keras.initializers",
                                "class_name": "Zeros",
                                "config": {},
                                "registered_name": null
                            },
                            "kernel_regularizer": null,
                            "bias_regularizer": null,
                            "activity_regularizer": null,
                            "kernel_constraint": null,
                            "bias_constraint": null
                        },
                        "name": "conv3d_19",
                        "inbound_nodes": [
                            [
                                [
                                    "re_lu_16",
                                    0,
                                    0,
                                    {}
                                ]
                            ]
                        ]
                    },
                    {
                        "class_name": "BatchNormalization",
                        "config": {
                            "name": "batch_normalization_17",
                            "trainable": true,
                            "dtype": "float32",
                            "axis": [
                                4
                            ],
                            "momentum": 0.99,
                            "epsilon": 0.001,
                            "center": true,
                            "scale": true,
                            "beta_initializer": {
                                "module": "keras.initializers",
                                "class_name": "Zeros",
                                "config": {},
                                "registered_name": null
                            },
                            "gamma_initializer": {
                                "module": "keras.initializers",
                                "class_name": "Ones",
                                "config": {},
                                "registered_name": null
                            },
                            "moving_mean_initializer": {
                                "module": "keras.initializers",
                                "class_name": "Zeros",
                                "config": {},
                                "registered_name": null
                            },
                            "moving_variance_initializer": {
                                "module": "keras.initializers",
                                "class_name": "Ones",
                                "config": {},
                                "registered_name": null
                            },
                            "beta_regularizer": null,
                            "gamma_regularizer": null,
                            "beta_constraint": null,
                            "gamma_constraint": null
                        },
                        "name": "batch_normalization_17",
                        "inbound_nodes": [
                            [
                                [
                                    "conv3d_19",
                                    0,
                                    0,
                                    {}
                                ]
                            ]
                        ]
                    },
                    {
                        "class_name": "ReLU",
                        "config": {
                            "name": "re_lu_17",
                            "trainable": true,
                            "dtype": "float32",
                            "max_value": null,
                            "negative_slope": 0.0,
                            "threshold": 0.0
                        },
                        "name": "re_lu_17",
                        "inbound_nodes": [
                            [
                                [
                                    "batch_normalization_17",
                                    0,
                                    0,
                                    {}
                                ]
                            ]
                        ]
                    },
                    {
                        "class_name": "Conv3DTranspose",
                        "config": {
                            "name": "conv3d_transpose_4",
                            "trainable": true,
                            "dtype": "float32",
                            "filters": 16,
                            "kernel_size": [
                                3,
                                3,
                                3
                            ],
                            "strides": [
                                2,
                                2,
                                2
                            ],
                            "padding": "same",
                            "data_format": "channels_last",
                            "groups": 1,
                            "activation": "linear",
                            "use_bias": true,
                            "kernel_initializer": {
                                "module": "keras.initializers",
                                "class_name": "GlorotUniform",
                                "config": {
                                    "seed": null
                                },
                                "registered_name": null
                            },
                            "bias_initializer": {
                                "module": "keras.initializers",
                                "class_name": "Zeros",
                                "config": {},
                                "registered_name": null
                            },
                            "kernel_regularizer": null,
                            "bias_regularizer": null,
                            "activity_regularizer": null,
                            "kernel_constraint": null,
                            "bias_constraint": null,
                            "output_padding": null
                        },
                        "name": "conv3d_transpose_4",
                        "inbound_nodes": [
                            [
                                [
                                    "re_lu_17",
                                    0,
                                    0,
                                    {}
                                ]
                            ]
                        ]
                    },
                    {
                        "class_name": "Concatenate",
                        "config": {
                            "name": "concatenate_4",
                            "trainable": true,
                            "dtype": "float32",
                            "axis": -1
                        },
                        "name": "concatenate_4",
                        "inbound_nodes": [
                            [
                                [
                                    "conv3d_transpose_4",
                                    0,
                                    0,
                                    {}
                                ],
                                [
                                    "re_lu_1",
                                    0,
                                    0,
                                    {}
                                ]
                            ]
                        ]
                    },
                    {
                        "class_name": "Conv3D",
                        "config": {
                            "name": "conv3d_20",
                            "trainable": true,
                            "dtype": "float32",
                            "filters": 16,
                            "kernel_size": [
                                3,
                                3,
                                3
                            ],
                            "strides": [
                                1,
                                1,
                                1
                            ],
                            "padding": "same",
                            "data_format": "channels_last",
                            "dilation_rate": [
                                1,
                                1,
                                1
                            ],
                            "groups": 1,
                            "activation": "relu",
                            "use_bias": true,
                            "kernel_initializer": {
                                "module": "keras.initializers",
                                "class_name": "HeNormal",
                                "config": {
                                    "seed": null
                                },
                                "registered_name": null
                            },
                            "bias_initializer": {
                                "module": "keras.initializers",
                                "class_name": "Zeros",
                                "config": {},
                                "registered_name": null
                            },
                            "kernel_regularizer": null,
                            "bias_regularizer": null,
                            "activity_regularizer": null,
                            "kernel_constraint": null,
                            "bias_constraint": null
                        },
                        "name": "conv3d_20",
                        "inbound_nodes": [
                            [
                                [
                                    "concatenate_4",
                                    0,
                                    0,
                                    {}
                                ]
                            ]
                        ]
                    },
                    {
                        "class_name": "BatchNormalization",
                        "config": {
                            "name": "batch_normalization_18",
                            "trainable": true,
                            "dtype": "float32",
                            "axis": [
                                4
                            ],
                            "momentum": 0.99,
                            "epsilon": 0.001,
                            "center": true,
                            "scale": true,
                            "beta_initializer": {
                                "module": "keras.initializers",
                                "class_name": "Zeros",
                                "config": {},
                                "registered_name": null
                            },
                            "gamma_initializer": {
                                "module": "keras.initializers",
                                "class_name": "Ones",
                                "config": {},
                                "registered_name": null
                            },
                            "moving_mean_initializer": {
                                "module": "keras.initializers",
                                "class_name": "Zeros",
                                "config": {},
                                "registered_name": null
                            },
                            "moving_variance_initializer": {
                                "module": "keras.initializers",
                                "class_name": "Ones",
                                "config": {},
                                "registered_name": null
                            },
                            "beta_regularizer": null,
                            "gamma_regularizer": null,
                            "beta_constraint": null,
                            "gamma_constraint": null
                        },
                        "name": "batch_normalization_18",
                        "inbound_nodes": [
                            [
                                [
                                    "conv3d_20",
                                    0,
                                    0,
                                    {}
                                ]
                            ]
                        ]
                    },
                    {
                        "class_name": "ReLU",
                        "config": {
                            "name": "re_lu_18",
                            "trainable": true,
                            "dtype": "float32",
                            "max_value": null,
                            "negative_slope": 0.0,
                            "threshold": 0.0
                        },
                        "name": "re_lu_18",
                        "inbound_nodes": [
                            [
                                [
                                    "batch_normalization_18",
                                    0,
                                    0,
                                    {}
                                ]
                            ]
                        ]
                    },
                    {
                        "class_name": "Conv3D",
                        "config": {
                            "name": "conv3d_21",
                            "trainable": true,
                            "dtype": "float32",
                            "filters": 16,
                            "kernel_size": [
                                3,
                                3,
                                3
                            ],
                            "strides": [
                                1,
                                1,
                                1
                            ],
                            "padding": "same",
                            "data_format": "channels_last",
                            "dilation_rate": [
                                1,
                                1,
                                1
                            ],
                            "groups": 1,
                            "activation": "relu",
                            "use_bias": true,
                            "kernel_initializer": {
                                "module": "keras.initializers",
                                "class_name": "HeNormal",
                                "config": {
                                    "seed": null
                                },
                                "registered_name": null
                            },
                            "bias_initializer": {
                                "module": "keras.initializers",
                                "class_name": "Zeros",
                                "config": {},
                                "registered_name": null
                            },
                            "kernel_regularizer": null,
                            "bias_regularizer": null,
                            "activity_regularizer": null,
                            "kernel_constraint": null,
                            "bias_constraint": null
                        },
                        "name": "conv3d_21",
                        "inbound_nodes": [
                            [
                                [
                                    "re_lu_18",
                                    0,
                                    0,
                                    {}
                                ]
                            ]
                        ]
                    },
                    {
                        "class_name": "BatchNormalization",
                        "config": {
                            "name": "batch_normalization_19",
                            "trainable": true,
                            "dtype": "float32",
                            "axis": [
                                4
                            ],
                            "momentum": 0.99,
                            "epsilon": 0.001,
                            "center": true,
                            "scale": true,
                            "beta_initializer": {
                                "module": "keras.initializers",
                                "class_name": "Zeros",
                                "config": {},
                                "registered_name": null
                            },
                            "gamma_initializer": {
                                "module": "keras.initializers",
                                "class_name": "Ones",
                                "config": {},
                                "registered_name": null
                            },
                            "moving_mean_initializer": {
                                "module": "keras.initializers",
                                "class_name": "Zeros",
                                "config": {},
                                "registered_name": null
                            },
                            "moving_variance_initializer": {
                                "module": "keras.initializers",
                                "class_name": "Ones",
                                "config": {},
                                "registered_name": null
                            },
                            "beta_regularizer": null,
                            "gamma_regularizer": null,
                            "beta_constraint": null,
                            "gamma_constraint": null
                        },
                        "name": "batch_normalization_19",
                        "inbound_nodes": [
                            [
                                [
                                    "conv3d_21",
                                    0,
                                    0,
                                    {}
                                ]
                            ]
                        ]
                    },
                    {
                        "class_name": "ReLU",
                        "config": {
                            "name": "re_lu_19",
                            "trainable": true,
                            "dtype": "float32",
                            "max_value": null,
                            "negative_slope": 0.0,
                            "threshold": 0.0
                        },
                        "name": "re_lu_19",
                        "inbound_nodes": [
                            [
                                [
                                    "batch_normalization_19",
                                    0,
                                    0,
                                    {}
                                ]
                            ]
                        ]
                    },
                    {
                        "class_name": "Conv3D",
                        "config": {
                            "name": "conv3d_22",
                            "trainable": true,
                            "dtype": "float32",
                            "filters": 2,
                            "kernel_size": [
                                3,
                                3,
                                3
                            ],
                            "strides": [
                                1,
                                1,
                                1
                            ],
                            "padding": "same",
                            "data_format": "channels_last",
                            "dilation_rate": [
                                1,
                                1,
                                1
                            ],
                            "groups": 1,
                            "activation": "softmax",
                            "use_bias": true,
                            "kernel_initializer": {
                                "module": "keras.initializers",
                                "class_name": "GlorotUniform",
                                "config": {
                                    "seed": null
                                },
                                "registered_name": null
                            },
                            "bias_initializer": {
                                "module": "keras.initializers",
                                "class_name": "Zeros",
                                "config": {},
                                "registered_name": null
                            },
                            "kernel_regularizer": null,
                            "bias_regularizer": null,
                            "activity_regularizer": null,
                            "kernel_constraint": null,
                            "bias_constraint": null
                        },
                        "name": "conv3d_22",
                        "inbound_nodes": [
                            [
                                [
                                    "re_lu_19",
                                    0,
                                    0,
                                    {}
                                ]
                            ]
                        ]
                    }
                ],
                "input_layers": [
                    [
                        "input_1",
                        0,
                        0
                    ]
                ],
                "output_layers": [
                    [
                        "conv3d_22",
                        0,
                        0
                    ]
                ]
            }
        },
        "training_config": {
            "loss": "sigmoid_focal_crossentropy",
            "metrics": [
                [
                    {
                        "class_name": "MeanMetricWrapper",
                        "config": {
                            "name": "accuracy",
                            "dtype": "float32",
                            "fn": "categorical_accuracy"
                        }
                    },
                    {
                        "class_name": "MeanMetricWrapper",
                        "config": {
                            "name": "categorical_accuracy",
                            "dtype": "float32",
                            "fn": "categorical_accuracy"
                        }
                    }
                ]
            ],
            "weighted_metrics": null,
            "loss_weights": null,
            "optimizer_config": {
                "class_name": "Custom>Adam",
                "config": {
                    "name": "Adam",
                    "weight_decay": null,
                    "clipnorm": null,
                    "global_clipnorm": null,
                    "clipvalue": null,
                    "use_ema": false,
                    "ema_momentum": 0.99,
                    "ema_overwrite_frequency": null,
                    "jit_compile": false,
                    "is_legacy_optimizer": false,
                    "learning_rate": 9.999999747378752e-06,
                    "beta_1": 0.9,
                    "beta_2": 0.999,
                    "epsilon": 1e-07,
                    "amsgrad": false
                }
            }
        }
    },
    "weightsManifest": [
        {
            "paths": [
                "group1-shard1of25.bin",
                "group1-shard2of25.bin",
                "group1-shard3of25.bin",
                "group1-shard4of25.bin",
                "group1-shard5of25.bin",
                "group1-shard6of25.bin",
                "group1-shard7of25.bin",
                "group1-shard8of25.bin",
                "group1-shard9of25.bin",
                "group1-shard10of25.bin",
                "group1-shard11of25.bin",
                "group1-shard12of25.bin",
                "group1-shard13of25.bin",
                "group1-shard14of25.bin",
                "group1-shard15of25.bin",
                "group1-shard16of25.bin",
                "group1-shard17of25.bin",
                "group1-shard18of25.bin",
                "group1-shard19of25.bin",
                "group1-shard20of25.bin",
                "group1-shard21of25.bin",
                "group1-shard22of25.bin",
                "group1-shard23of25.bin",
                "group1-shard24of25.bin",
                "group1-shard25of25.bin"
            ],
            "weights": [
                {
                    "name": "batch_normalization/gamma",
                    "shape": [
                        16
                    ],
                    "dtype": "float32"
                },
                {
                    "name": "batch_normalization/beta",
                    "shape": [
                        16
                    ],
                    "dtype": "float32"
                },
                {
                    "name": "batch_normalization/moving_mean",
                    "shape": [
                        16
                    ],
                    "dtype": "float32"
                },
                {
                    "name": "batch_normalization/moving_variance",
                    "shape": [
                        16
                    ],
                    "dtype": "float32"
                },
                {
                    "name": "batch_normalization_1/gamma",
                    "shape": [
                        16
                    ],
                    "dtype": "float32"
                },
                {
                    "name": "batch_normalization_1/beta",
                    "shape": [
                        16
                    ],
                    "dtype": "float32"
                },
                {
                    "name": "batch_normalization_1/moving_mean",
                    "shape": [
                        16
                    ],
                    "dtype": "float32"
                },
                {
                    "name": "batch_normalization_1/moving_variance",
                    "shape": [
                        16
                    ],
                    "dtype": "float32"
                },
                {
                    "name": "batch_normalization_10/gamma",
                    "shape": [
                        256
                    ],
                    "dtype": "float32"
                },
                {
                    "name": "batch_normalization_10/beta",
                    "shape": [
                        256
                    ],
                    "dtype": "float32"
                },
                {
                    "name": "batch_normalization_10/moving_mean",
                    "shape": [
                        256
                    ],
                    "dtype": "float32"
                },
                {
                    "name": "batch_normalization_10/moving_variance",
                    "shape": [
                        256
                    ],
                    "dtype": "float32"
                },
                {
                    "name": "batch_normalization_11/gamma",
                    "shape": [
                        256
                    ],
                    "dtype": "float32"
                },
                {
                    "name": "batch_normalization_11/beta",
                    "shape": [
                        256
                    ],
                    "dtype": "float32"
                },
                {
                    "name": "batch_normalization_11/moving_mean",
                    "shape": [
                        256
                    ],
                    "dtype": "float32"
                },
                {
                    "name": "batch_normalization_11/moving_variance",
                    "shape": [
                        256
                    ],
                    "dtype": "float32"
                },
                {
                    "name": "batch_normalization_12/gamma",
                    "shape": [
                        128
                    ],
                    "dtype": "float32"
                },
                {
                    "name": "batch_normalization_12/beta",
                    "shape": [
                        128
                    ],
                    "dtype": "float32"
                },
                {
                    "name": "batch_normalization_12/moving_mean",
                    "shape": [
                        128
                    ],
                    "dtype": "float32"
                },
                {
                    "name": "batch_normalization_12/moving_variance",
                    "shape": [
                        128
                    ],
                    "dtype": "float32"
                },
                {
                    "name": "batch_normalization_13/gamma",
                    "shape": [
                        128
                    ],
                    "dtype": "float32"
                },
                {
                    "name": "batch_normalization_13/beta",
                    "shape": [
                        128
                    ],
                    "dtype": "float32"
                },
                {
                    "name": "batch_normalization_13/moving_mean",
                    "shape": [
                        128
                    ],
                    "dtype": "float32"
                },
                {
                    "name": "batch_normalization_13/moving_variance",
                    "shape": [
                        128
                    ],
                    "dtype": "float32"
                },
                {
                    "name": "batch_normalization_14/gamma",
                    "shape": [
                        64
                    ],
                    "dtype": "float32"
                },
                {
                    "name": "batch_normalization_14/beta",
                    "shape": [
                        64
                    ],
                    "dtype": "float32"
                },
                {
                    "name": "batch_normalization_14/moving_mean",
                    "shape": [
                        64
                    ],
                    "dtype": "float32"
                },
                {
                    "name": "batch_normalization_14/moving_variance",
                    "shape": [
                        64
                    ],
                    "dtype": "float32"
                },
                {
                    "name": "batch_normalization_15/gamma",
                    "shape": [
                        64
                    ],
                    "dtype": "float32"
                },
                {
                    "name": "batch_normalization_15/beta",
                    "shape": [
                        64
                    ],
                    "dtype": "float32"
                },
                {
                    "name": "batch_normalization_15/moving_mean",
                    "shape": [
                        64
                    ],
                    "dtype": "float32"
                },
                {
                    "name": "batch_normalization_15/moving_variance",
                    "shape": [
                        64
                    ],
                    "dtype": "float32"
                },
                {
                    "name": "batch_normalization_16/gamma",
                    "shape": [
                        32
                    ],
                    "dtype": "float32"
                },
                {
                    "name": "batch_normalization_16/beta",
                    "shape": [
                        32
                    ],
                    "dtype": "float32"
                },
                {
                    "name": "batch_normalization_16/moving_mean",
                    "shape": [
                        32
                    ],
                    "dtype": "float32"
                },
                {
                    "name": "batch_normalization_16/moving_variance",
                    "shape": [
                        32
                    ],
                    "dtype": "float32"
                },
                {
                    "name": "batch_normalization_17/gamma",
                    "shape": [
                        32
                    ],
                    "dtype": "float32"
                },
                {
                    "name": "batch_normalization_17/beta",
                    "shape": [
                        32
                    ],
                    "dtype": "float32"
                },
                {
                    "name": "batch_normalization_17/moving_mean",
                    "shape": [
                        32
                    ],
                    "dtype": "float32"
                },
                {
                    "name": "batch_normalization_17/moving_variance",
                    "shape": [
                        32
                    ],
                    "dtype": "float32"
                },
                {
                    "name": "batch_normalization_18/gamma",
                    "shape": [
                        16
                    ],
                    "dtype": "float32"
                },
                {
                    "name": "batch_normalization_18/beta",
                    "shape": [
                        16
                    ],
                    "dtype": "float32"
                },
                {
                    "name": "batch_normalization_18/moving_mean",
                    "shape": [
                        16
                    ],
                    "dtype": "float32"
                },
                {
                    "name": "batch_normalization_18/moving_variance",
                    "shape": [
                        16
                    ],
                    "dtype": "float32"
                },
                {
                    "name": "batch_normalization_19/gamma",
                    "shape": [
                        16
                    ],
                    "dtype": "float32"
                },
                {
                    "name": "batch_normalization_19/beta",
                    "shape": [
                        16
                    ],
                    "dtype": "float32"
                },
                {
                    "name": "batch_normalization_19/moving_mean",
                    "shape": [
                        16
                    ],
                    "dtype": "float32"
                },
                {
                    "name": "batch_normalization_19/moving_variance",
                    "shape": [
                        16
                    ],
                    "dtype": "float32"
                },
                {
                    "name": "batch_normalization_2/gamma",
                    "shape": [
                        32
                    ],
                    "dtype": "float32"
                },
                {
                    "name": "batch_normalization_2/beta",
                    "shape": [
                        32
                    ],
                    "dtype": "float32"
                },
                {
                    "name": "batch_normalization_2/moving_mean",
                    "shape": [
                        32
                    ],
                    "dtype": "float32"
                },
                {
                    "name": "batch_normalization_2/moving_variance",
                    "shape": [
                        32
                    ],
                    "dtype": "float32"
                },
                {
                    "name": "batch_normalization_3/gamma",
                    "shape": [
                        32
                    ],
                    "dtype": "float32"
                },
                {
                    "name": "batch_normalization_3/beta",
                    "shape": [
                        32
                    ],
                    "dtype": "float32"
                },
                {
                    "name": "batch_normalization_3/moving_mean",
                    "shape": [
                        32
                    ],
                    "dtype": "float32"
                },
                {
                    "name": "batch_normalization_3/moving_variance",
                    "shape": [
                        32
                    ],
                    "dtype": "float32"
                },
                {
                    "name": "batch_normalization_4/gamma",
                    "shape": [
                        64
                    ],
                    "dtype": "float32"
                },
                {
                    "name": "batch_normalization_4/beta",
                    "shape": [
                        64
                    ],
                    "dtype": "float32"
                },
                {
                    "name": "batch_normalization_4/moving_mean",
                    "shape": [
                        64
                    ],
                    "dtype": "float32"
                },
                {
                    "name": "batch_normalization_4/moving_variance",
                    "shape": [
                        64
                    ],
                    "dtype": "float32"
                },
                {
                    "name": "batch_normalization_5/gamma",
                    "shape": [
                        64
                    ],
                    "dtype": "float32"
                },
                {
                    "name": "batch_normalization_5/beta",
                    "shape": [
                        64
                    ],
                    "dtype": "float32"
                },
                {
                    "name": "batch_normalization_5/moving_mean",
                    "shape": [
                        64
                    ],
                    "dtype": "float32"
                },
                {
                    "name": "batch_normalization_5/moving_variance",
                    "shape": [
                        64
                    ],
                    "dtype": "float32"
                },
                {
                    "name": "batch_normalization_6/gamma",
                    "shape": [
                        128
                    ],
                    "dtype": "float32"
                },
                {
                    "name": "batch_normalization_6/beta",
                    "shape": [
                        128
                    ],
                    "dtype": "float32"
                },
                {
                    "name": "batch_normalization_6/moving_mean",
                    "shape": [
                        128
                    ],
                    "dtype": "float32"
                },
                {
                    "name": "batch_normalization_6/moving_variance",
                    "shape": [
                        128
                    ],
                    "dtype": "float32"
                },
                {
                    "name": "batch_normalization_7/gamma",
                    "shape": [
                        128
                    ],
                    "dtype": "float32"
                },
                {
                    "name": "batch_normalization_7/beta",
                    "shape": [
                        128
                    ],
                    "dtype": "float32"
                },
                {
                    "name": "batch_normalization_7/moving_mean",
                    "shape": [
                        128
                    ],
                    "dtype": "float32"
                },
                {
                    "name": "batch_normalization_7/moving_variance",
                    "shape": [
                        128
                    ],
                    "dtype": "float32"
                },
                {
                    "name": "batch_normalization_8/gamma",
                    "shape": [
                        256
                    ],
                    "dtype": "float32"
                },
                {
                    "name": "batch_normalization_8/beta",
                    "shape": [
                        256
                    ],
                    "dtype": "float32"
                },
                {
                    "name": "batch_normalization_8/moving_mean",
                    "shape": [
                        256
                    ],
                    "dtype": "float32"
                },
                {
                    "name": "batch_normalization_8/moving_variance",
                    "shape": [
                        256
                    ],
                    "dtype": "float32"
                },
                {
                    "name": "batch_normalization_9/gamma",
                    "shape": [
                        256
                    ],
                    "dtype": "float32"
                },
                {
                    "name": "batch_normalization_9/beta",
                    "shape": [
                        256
                    ],
                    "dtype": "float32"
                },
                {
                    "name": "batch_normalization_9/moving_mean",
                    "shape": [
                        256
                    ],
                    "dtype": "float32"
                },
                {
                    "name": "batch_normalization_9/moving_variance",
                    "shape": [
                        256
                    ],
                    "dtype": "float32"
                },
                {
                    "name": "conv3d/kernel",
                    "shape": [
                        3,
                        3,
                        3,
                        1,
                        16
                    ],
                    "dtype": "float32"
                },
                {
                    "name": "conv3d_1/kernel",
                    "shape": [
                        3,
                        3,
                        3,
                        16,
                        16
                    ],
                    "dtype": "float32"
                },
                {
                    "name": "conv3d_10/kernel",
                    "shape": [
                        3,
                        3,
                        3,
                        256,
                        512
                    ],
                    "dtype": "float32"
                },
                {
                    "name": "conv3d_10/bias",
                    "shape": [
                        512
                    ],
                    "dtype": "float32"
                },
                {
                    "name": "conv3d_11/kernel",
                    "shape": [
                        3,
                        3,
                        3,
                        512,
                        512
                    ],
                    "dtype": "float32"
                },
                {
                    "name": "conv3d_11/bias",
                    "shape": [
                        512
                    ],
                    "dtype": "float32"
                },
                {
                    "name": "conv3d_12/kernel",
                    "shape": [
                        3,
                        3,
                        3,
                        512,
                        256
                    ],
                    "dtype": "float32"
                },
                {
                    "name": "conv3d_12/bias",
                    "shape": [
                        256
                    ],
                    "dtype": "float32"
                },
                {
                    "name": "conv3d_13/kernel",
                    "shape": [
                        3,
                        3,
                        3,
                        256,
                        256
                    ],
                    "dtype": "float32"
                },
                {
                    "name": "conv3d_13/bias",
                    "shape": [
                        256
                    ],
                    "dtype": "float32"
                },
                {
                    "name": "conv3d_14/kernel",
                    "shape": [
                        3,
                        3,
                        3,
                        256,
                        128
                    ],
                    "dtype": "float32"
                },
                {
                    "name": "conv3d_14/bias",
                    "shape": [
                        128
                    ],
                    "dtype": "float32"
                },
                {
                    "name": "conv3d_15/kernel",
                    "shape": [
                        3,
                        3,
                        3,
                        128,
                        128
                    ],
                    "dtype": "float32"
                },
                {
                    "name": "conv3d_15/bias",
                    "shape": [
                        128
                    ],
                    "dtype": "float32"
                },
                {
                    "name": "conv3d_16/kernel",
                    "shape": [
                        3,
                        3,
                        3,
                        128,
                        64
                    ],
                    "dtype": "float32"
                },
                {
                    "name": "conv3d_16/bias",
                    "shape": [
                        64
                    ],
                    "dtype": "float32"
                },
                {
                    "name": "conv3d_17/kernel",
                    "shape": [
                        3,
                        3,
                        3,
                        64,
                        64
                    ],
                    "dtype": "float32"
                },
                {
                    "name": "conv3d_17/bias",
                    "shape": [
                        64
                    ],
                    "dtype": "float32"
                },
                {
                    "name": "conv3d_18/kernel",
                    "shape": [
                        3,
                        3,
                        3,
                        64,
                        32
                    ],
                    "dtype": "float32"
                },
                {
                    "name": "conv3d_18/bias",
                    "shape": [
                        32
                    ],
                    "dtype": "float32"
                },
                {
                    "name": "conv3d_19/kernel",
                    "shape": [
                        3,
                        3,
                        3,
                        32,
                        32
                    ],
                    "dtype": "float32"
                },
                {
                    "name": "conv3d_19/bias",
                    "shape": [
                        32
                    ],
                    "dtype": "float32"
                },
                {
                    "name": "conv3d_2/kernel",
                    "shape": [
                        3,
                        3,
                        3,
                        16,
                        32
                    ],
                    "dtype": "float32"
                },
                {
                    "name": "conv3d_20/kernel",
                    "shape": [
                        3,
                        3,
                        3,
                        32,
                        16
                    ],
                    "dtype": "float32"
                },
                {
                    "name": "conv3d_20/bias",
                    "shape": [
                        16
                    ],
                    "dtype": "float32"
                },
                {
                    "name": "conv3d_21/kernel",
                    "shape": [
                        3,
                        3,
                        3,
                        16,
                        16
                    ],
                    "dtype": "float32"
                },
                {
                    "name": "conv3d_21/bias",
                    "shape": [
                        16
                    ],
                    "dtype": "float32"
                },
                {
                    "name": "conv3d_22/kernel",
                    "shape": [
                        3,
                        3,
                        3,
                        16,
                        2
                    ],
                    "dtype": "float32"
                },
                {
                    "name": "conv3d_22/bias",
                    "shape": [
                        2
                    ],
                    "dtype": "float32"
                },
                {
                    "name": "conv3d_3/kernel",
                    "shape": [
                        3,
                        3,
                        3,
                        32,
                        32
                    ],
                    "dtype": "float32"
                },
                {
                    "name": "conv3d_4/kernel",
                    "shape": [
                        3,
                        3,
                        3,
                        32,
                        64
                    ],
                    "dtype": "float32"
                },
                {
                    "name": "conv3d_5/kernel",
                    "shape": [
                        3,
                        3,
                        3,
                        64,
                        64
                    ],
                    "dtype": "float32"
                },
                {
                    "name": "conv3d_6/kernel",
                    "shape": [
                        3,
                        3,
                        3,
                        64,
                        128
                    ],
                    "dtype": "float32"
                },
                {
                    "name": "conv3d_7/kernel",
                    "shape": [
                        3,
                        3,
                        3,
                        128,
                        128
                    ],
                    "dtype": "float32"
                },
                {
                    "name": "conv3d_8/kernel",
                    "shape": [
                        3,
                        3,
                        3,
                        128,
                        256
                    ],
                    "dtype": "float32"
                },
                {
                    "name": "conv3d_9/kernel",
                    "shape": [
                        3,
                        3,
                        3,
                        256,
                        256
                    ],
                    "dtype": "float32"
                },
                {
                    "name": "conv3d_transpose/kernel",
                    "shape": [
                        3,
                        3,
                        3,
                        256,
                        512
                    ],
                    "dtype": "float32"
                },
                {
                    "name": "conv3d_transpose/bias",
                    "shape": [
                        256
                    ],
                    "dtype": "float32"
                },
                {
                    "name": "conv3d_transpose_1/kernel",
                    "shape": [
                        3,
                        3,
                        3,
                        128,
                        256
                    ],
                    "dtype": "float32"
                },
                {
                    "name": "conv3d_transpose_1/bias",
                    "shape": [
                        128
                    ],
                    "dtype": "float32"
                },
                {
                    "name": "conv3d_transpose_2/kernel",
                    "shape": [
                        3,
                        3,
                        3,
                        64,
                        128
                    ],
                    "dtype": "float32"
                },
                {
                    "name": "conv3d_transpose_2/bias",
                    "shape": [
                        64
                    ],
                    "dtype": "float32"
                },
                {
                    "name": "conv3d_transpose_3/kernel",
                    "shape": [
                        3,
                        3,
                        3,
                        32,
                        64
                    ],
                    "dtype": "float32"
                },
                {
                    "name": "conv3d_transpose_3/bias",
                    "shape": [
                        32
                    ],
                    "dtype": "float32"
                },
                {
                    "name": "conv3d_transpose_4/kernel",
                    "shape": [
                        3,
                        3,
                        3,
                        16,
                        32
                    ],
                    "dtype": "float32"
                },
                {
                    "name": "conv3d_transpose_4/bias",
                    "shape": [
                        16
                    ],
                    "dtype": "float32"
                }
            ]
        }
    ]
}